results/model.pth (torch, 169671 bytes, 14 tensors)

conv1.weight f4 [16, 1, 1, 33]
000000 93 b9 3d bc 55 e5 8a 3d 4b a1 7e 3d df 71 02 3e
       -0.011579889 0.06782023 0.06216554 0.12738751
000010 cb 67 a1 bd 89 46 b8 bd d7 0c 23 be 91 81 d7 bd
       -0.07881125 -0.089978285 -0.15922867 -0.1052276
000020 9a 74 b5 bd bf 7b 21 3d ab cb 01 be 59 29 25 3e
       -0.088601306 0.039424654 -0.1267535 0.16129054
000030 9b b5 3c 3c 34 99 07 be 77 54 92 bd d9 2d 16 be
       0.0115179075 -0.13242036 -0.07145017 -0.14665927
000040 8f 69 f7 bd cb 28 b6 3c ae 33 dd 3d 55 6a a7 b9
       -0.120806806 0.022236248 0.10800873 -0.00031931946
000050 40 bb 13 bd 5d 60 bd 3d 65 0a e8 bd 8f c8 ed bd
       -0.036067247 0.092468955 -0.113301076 -0.11610519
000060 7c 1a 89 3d d2 b5 2c 3e 71 a5 92 bc 6c 23 13 3e
       0.066945046 0.16866234 -0.017901154 0.14368981
000070 fb 27 cc 3c af 32 fa 3d 85 66 03 be b7 74 5a bb
       0.024921408 0.122166984 -0.12832077 -0.0033333728
000080 85 f6 19 bc c4 ad c7 3b b1 97 15 3e 47 06 f1 bd
       -0.009397154 0.0060937125 0.14608647 -0.117687754
000090 ec 30 f0 3c 13 95 b9 3d c0 ac b4 3d b3 46 26 3e
       0.029320203 0.09061637 0.08822012 0.16237907
0000a0 fb 03 06 3e c6 a6 03 bd 72 c5 e7 bc a4 9f 0f bc
       0.13087456 -0.03214147 -0.028292391 -0.008766089
0000b0 6b a7 31 3e db 10 a3 3d 41 c8 b8 3c 56 94 87 bd
       0.17349021 0.07962199 0.022556426 -0.0662009
0000c0 99 1e c6 bc dc 22 7e bd 73 85 64 bd 5a af 57 3e
       -0.024184512 -0.062044963 -0.05579133 0.21062985
0000d0 99 11 bd 3a dc 88 24 3e e0 a1 a3 3d 29 b4 e7 bd
       0.00144248 0.16067833 0.079898596 -0.1131366
0000e0 20 46 a0 3d 2d 2e 87 bd 63 d5 89 bd 0d c2 ad 3d
       0.07825875 -0.06600604 -0.067301534 0.08484278
0000f0 27 70 f5 bc 40 94 f5 bd 7a c5 1a 3e d0 30 33 3e
       -0.029960705 -0.11991167 0.15114394 0.17499089
000100 a2 37 4e 3d e0 ee c2 3d 2a a8 6e be 7b fe 07 be
       0.050346024 0.09518218 -0.23306337 -0.1328067
000110 a1 a2 27 bd a4 3b f2 bd 62 db 80 3d 55 cf 30 be
       -0.04092658 -0.11827782 0.06291844 -0.17266591
000120 2c 8f f7 bd 34 1b eb 3d a6 d4 d8 3d d8 17 20 be
       -0.12087855 0.11479798 0.105874345 -0.15634096
000130 9a f6 f5 bd be 30 9b bd 5e 5c 59 bd dc be a3 3d
       -0.12009926 -0.07577656 -0.053066604 0.07995388
000140 5a 36 2b 3e a2 86 e0 ba de 7d 40 3e 32 d3 eb bd
       0.16719952 -0.0017129967 0.18798015 -0.11514892
000150 c5 89 ab bd c5 23 7b 3d c2 82 48 3c ef a5 56 3c
       -0.08375887 0.06131341 0.012238206 0.013101085
000160 ed 0f 64 3c a3 bc da bd 6a 81 20 be f8 25 e7 bd
       0.013919813 -0.10680511 -0.15674368 -0.11286539
000170 a5 bb 47 be bd 68 2c be e1 ea fc bc 40 79 a5 bc
       -0.19505174 -0.1683683 -0.030873718 -0.020199418
000180 98 d1 cb bd 3b 01 bb bd c1 27 cc bd 75 35 1f bd
       -0.09952086 -0.09131094 -0.0996852 -0.03886934
000190 ea a4 ce bd 00 03 8c bd bc 56 43 3e d4 08 f3 3d
       -0.100900486 -0.0683651 0.19076055 0.11866918
0001a0 72 d2 ca bc fe 75 2f bd 6e e0 5a bd 85 49 01 3d
       -0.024758551 -0.042837135 -0.05343669 0.031564254
0001b0 72 db 3d bb 39 d5 19 3e 69 27 d0 3a bd 38 12 be
       -0.002896991 0.15022744 0.0015880886 -0.14279456
0001c0 86 5b 3a bd c0 09 0a 3d 8a d4 1c 3e d2 d3 84 3d
       -0.04549744 0.033700705 0.15315452 0.06485714
0001d0 64 ed f4 bd a0 8c 22 be d1 dd 95 3c 77 fe 6f bc
       -0.11959341 -0.15873957 0.018294247 -0.0146480715
0001e0 29 db f3 ba 62 63 3d bd c8 12 16 3e 99 2c 0a be
       -0.0018604744 -0.046237357 0.14655602 -0.13493575
0001f0 18 38 d5 bd 3d a7 09 3d 31 a3 0e be fb c6 1f 3e
       -0.1041109 0.033606756 -0.1392944 0.15603249
000200 f6 4b 58 3e 68 ce 72 3c ef 43 f1 bd 44 c4 2b be
       0.21122727 0.014819719 -0.117805354 -0.16774088
000210 e4 36 0c be 19 e2 3d 3c 97 19 e1 3a 50 b5 e5 3c
       -0.13692814 0.01158955 0.0017173764 0.028040558
000220 c6 99 52 3d 16 b7 1f bc 1d ac 0c be e2 da 15 3e
       0.05141618 -0.009748241 -0.13737531 0.14634278
000230 e1 99 ed bd 58 b8 f3 3c fa 66 ce 3c 1c c8 86 3d
       -0.11601616 0.029750988 0.025195587 0.065811366
000240 ce ea fa 3d b6 8f 45 bc 41 13 4c bd 37 fc 2c 3e
       0.12251817 -0.012058189 -0.04982305 0.16893087
000250 cc cd f1 3d 3f 35 d0 3d 5c 73 3a 3e ff 78 19 3e
       0.11806831 0.10166406 0.18208069 0.14987563
000260 b3 5e 12 3e 79 f3 a5 3c ec e7 0d 3e 38 ba 84 bd
       0.14293937 0.020257698 0.13858002 -0.06480831
000270 72 14 0d 3d 7a 50 18 be b8 42 36 bc 49 96 46 be
       0.034443326 -0.1487445 -0.011124305 -0.19393267
000280 16 cd 65 be e3 47 37 be 2a eb 19 bc 87 b4 50 be
       -0.22441515 -0.17898516 -0.009394446 -0.20381366
000290 9e 1b b2 3d a3 f4 a3 3d 2a 23 3c 3e d0 aa 65 3d
       0.08696674 0.08005645 0.18372789 0.056071103
0002a0 06 45 bf 3d 0d 4f db bc 2f a8 c9 3c 28 4d c6 3d
       0.09339337 -0.026771093 0.024616329 0.09682685
0002b0 a3 9d 6a 3d bf 33 14 be 71 c3 8f bd 0a 65 1e be
       0.05727924 -0.14472865 -0.07019699 -0.15468231
0002c0 b2 d8 46 be e2 a5 8b bd 08 22 40 3e d6 b4 13 3c
       -0.194186 -0.06818749 0.18762982 0.009015283
0002d0 05 42 b9 bc 55 db cd bd 14 ac 97 3d 47 ca 40 3d
       -0.022614488 -0.100516 0.07405868 0.047067907
0002e0 8a 80 9a 3d 33 46 fe bd 1f ae 65 3d 98 49 9d bd
       0.07544048 -0.12415733 0.056074258 -0.076800525
0002f0 d6 c8 0a be 71 9e c8 3c 2c 74 d4 3d ec ed d3 bd
       -0.13553175 0.024489613 0.103737205 -0.10348114
000300 0d 5b e4 3d 14 af 59 ba a8 43 51 be 14 01 35 be
       0.11150179 -0.0008303982 -0.20435965 -0.17676193
000310 c9 2d d0 3d cd 56 a1 3d 4f 3d 92 bc ed 4d 8f bd
       0.10164983 0.07877884 -0.0178515 -0.06997285
000320 67 55 56 3d f2 a2 6a bc 7d 9b ef bd a1 24 49 be
       0.05232754 -0.014321076 -0.11699579 -0.19642879
000330 5e 27 b7 bd b1 bb 14 3e 51 63 de 3d 66 89 57 3e
       -0.089430556 0.14524724 0.10858787 0.21048507
000340 9a 07 d7 bd f9 bc 5d 3c d6 c6 b0 bd 83 7a 03 bc
       -0.10499497 0.013533824 -0.08631675 -0.008024815
000350 64 ba fc bd 26 43 07 be 31 ae 4f 3e 16 6f 80 bd
       -0.12340239 -0.13209209 0.20281292 -0.06271188
000360 6c ef af bb bd 83 19 3d 8a 1d 9c 3d 6c 11 c0 bd
       -0.0053691175 0.03747915 0.07622822 -0.09378323
000370 d9 99 51 bc b7 a1 ae bd c4 1c 22 3d 3a 0f 32 be
       -0.012793028 -0.085269384 0.039578214 -0.17388621
000380 f1 2c 0e bc 3c d3 17 bd 6c 9f e4 bc e7 b2 42 3e
       -0.008677707 -0.037066683 -0.02790805 0.19013558
000390 fd c4 26 3d 40 db 38 be 9e 39 a6 bd 04 00 22 3e
       0.040715206 -0.18052387 -0.08116458 0.15820318
0003a0 af 07 8d bd b8 22 5a 3e d7 3d d3 3d b0 c5 b9 3d
       -0.06886231 0.21302307 0.103145294 0.09070909
0003b0 de 61 9d 3d 6c 2a b4 bb 43 14 8c bd 37 43 ae 3c
       0.07684682 -0.005498221 -0.06839802 0.021272285
0003c0 40 73 5a 3b 71 db 9d 3b 8f b0 15 be ba 71 17 be
       0.0033332855 0.004817419 -0.14618133 -0.14789477
0003d0 99 88 dc bd 3a 79 11 3e ce 67 a6 bd ff eb 5f 3e
       -0.107682414 0.142064 -0.08125268 0.21867369
0003e0 08 47 3d 3e da 10 94 3d 42 87 a9 bd 11 97 29 be
       0.18484128 0.07229777 -0.082777515 -0.16561534
0003f0 e3 98 b3 bd 09 47 9d bd fe 4f a8 3b 40 cf 27 3e
       -0.08769395 -0.076795645 0.005136489 0.16387653

conv1.bias f4 [16]
000000 6d 6b c2 bd dd 76 2d 3e ce cc 19 3e 3b 44 94 bd
       -0.09493146 0.16939874 0.15019533 -0.072395764
000010 ac 4b ed 3d eb 65 e5 bd 29 65 27 be 57 24 ae bc
       0.11586699 -0.1120108 -0.16347183 -0.021257563
000020 52 e5 ba bd d3 18 3d 3e c0 32 3e 3e 76 5d 38 3d
       -0.09125771 0.18466501 0.18574047 0.045011006
000030 c9 69 c6 bd 04 10 c1 3d f3 d7 d1 3b bd a5 a7 bc
       -0.09688146 0.09426883 0.006403917 -0.020464772

bn1.weight f4 [16]
000000 82 0b 84 3f 5d 5f 82 3f 76 8a 73 3f f3 d4 81 3f
       1.0316012 1.0185353 0.9513315 1.0143112
000010 02 20 80 3f f1 80 80 3f c5 86 81 3f 92 f8 82 3f
       1.0009768 1.003935 1.0119253 1.0232108
000020 8f f7 75 3f 21 64 80 3f e0 8f 7d 3f b2 23 88 3f
       0.9608087 1.0030557 0.9904766 1.0635893
000030 a3 03 81 3f 06 7c 72 3f b8 37 80 3f 8c 99 74 3f
       1.0079235 0.94720495 1.0017004 0.95546794

bn1.bias f4 [16]
000000 db 95 ae 3d 02 69 ed 3d f1 5c 25 bd dc 3a fa 3d
       0.085246764 0.11592294 -0.04037184 0.12218258
000010 46 02 6a bd 01 7a ed 3d aa b2 8e 3d 06 99 ff 3d
       -0.057131074 0.11595536 0.06967671 0.12480359
000020 86 64 08 3d 98 eb 22 3e 24 cc 57 3d 28 a7 a9 bd
       0.03329899 0.15910184 0.052684918 -0.08283836
000030 e4 87 1c 3e 57 b6 de bd 5f bf 4b bd cc 14 cb 3d
       0.15286213 -0.10874622 -0.049743053 0.09916076

bn1.running_mean f4 [16]
000000 dd 19 c3 bd b6 5a 2d 3e 66 9b 19 3e 12 7b 92 bd
       -0.095264174 0.16929135 0.15000686 -0.0715238
000010 72 90 ee 3d b1 98 e4 bd 68 e0 27 be 68 a8 af bc
       0.116486445 -0.11161936 -0.16394198 -0.021442607
000020 0f 0a bc bd 2e cc 3c 3e a1 9a 3e 3e cc 5c 37 3d
       -0.09181606 0.18437263 0.18613674 0.044766232
000030 4f c7 c7 bd 23 71 bf 3d 9e 88 cb 3b 01 71 ac bc
       -0.09754812 0.09347751 0.0062113544 -0.021049978

bn1.running_var f4 [16]
000000 2d e8 bc 3e f1 38 b7 3e 1f 0a fc 3e 6d c4 f2 3e
       0.36895886 0.3578563 0.49226472 0.47415486
000010 5d e2 1a 3f 63 e6 12 3f eb 67 cf 3e 0d 95 2a 3f
       0.6050165 0.5738279 0.4050897 0.66633683
000020 c2 50 14 3f 9a 17 04 3f e4 e8 dd 3e 71 3c dc 3e
       0.57935727 0.51598513 0.43341744 0.43014863
000030 e0 16 0e 3f 12 92 22 3f 13 0f 1c 3f d9 0f 16 3f
       0.55503654 0.63504136 0.609605 0.5861793

conv2.weight f4 [32, 16, 64, 1]
000000 20 25 cb 3b 80 10 07 3d 67 b6 16 3d 77 8a ca 3c
       0.006199494 0.03297472 0.036795046 0.024724228
000010 83 b0 b7 3c fa 1b 0a bb 41 9d 37 3c 60 a7 c4 bd
       0.022423035 -0.0021073804 0.011206926 -0.09602237
000020 fa fb 26 3d 21 17 b4 bc 43 09 a8 bd 07 09 cf 3c
       0.040767647 -0.021983685 -0.082048915 0.02527286
000030 60 fc 34 bd 2a e7 25 3c 46 21 69 3d 82 01 26 3e
       -0.044185996 0.010125915 0.056916498 0.16211513
000040 ac 06 b2 bb d0 f4 0f bd 30 cf 6b bc 7a 3d 7a 3d
       -0.0054329243 -0.03514558 -0.014392659 0.061093785
000050 53 a7 ab bd 9d 20 3e 3c 7e 74 27 bc ae 65 6f 3c
       -0.08381524 0.011604455 -0.010220645 0.014611645
000060 40 29 88 3c fe 47 fc bd 87 ea 0d bd 6e c6 82 3d
       0.016621232 -0.12318419 -0.03464749 0.06385504
000070 68 2f 61 3d 69 e9 85 bc 26 d5 5d bc 8e 35 9a 3c
       0.05497685 -0.01634665 -0.013539588 0.018824365
000080 50 98 8b bd 5b fe a3 3c a0 4d 54 3d f6 0a e3 bc
       -0.06816161 0.020018747 0.05183184 -0.027715188
000090 08 34 81 3b 26 a4 0b bd 17 a8 d9 3c ce b4 17 3d
       0.00394297 -0.03409209 0.02656941 0.037037663
0000a0 f1 53 13 3d 29 ae fd bc f9 3a 52 bd b3 de 86 bd
       0.035968725 -0.030966835 -0.051325772 -0.06585445
0000b0 dc 37 f7 bc c0 df 05 3e fe 5e 0d 3c 01 e2 78 bd
       -0.030178003 0.13073635 0.008628605 -0.06076241
0000c0 23 db 15 3d eb 77 3c 3d 71 87 ac 3c f5 a2 cf bc
       0.03658594 0.0460128 0.021060677 -0.025346259
0000d0 80 35 b1 bd e7 0d 2e 3d 85 ef f8 bc eb a3 dd bd
       -0.086527824 0.042493727 -0.03038765 -0.108222805
0000e0 35 e9 a5 3d 18 0c f4 3d 5e b0 e1 bd 88 24 79 bd
       0.08101121 0.11916369 -0.110199675 -0.060825855
0000f0 a3 48 a8 3c 05 69 e3 3c bf 7b f1 bd 37 3b 44 bd
       0.020542448 0.027760038 -0.11791181 -0.047908034
000100 cf f9 da bc 3c 52 3a 3d 5e e6 a4 ba c3 1e ba 3c
       -0.026730446 0.04548858 -0.0012580862 0.022719746
000110 8b cb eb bc 6d 80 56 3d ce 23 8f 3d 7d 40 f6 3c
       -0.02878358 0.05236857 0.06989251 0.030060047
000120 e3 d2 9b 3c d2 f4 63 bd 74 0e 14 bd b0 18 11 bc
       0.019021457 -0.0556534 -0.036146596 -0.008855984
000130 bb 34 7f 3c df f6 05 bd 94 8d d0 3d 30 21 d4 3d
       0.015576537 -0.032706138 0.10183254 0.103578925
000140 38 60 89 3d 03 0b 09 3c 3b ad 55 3c ff 28 f1 bd
       0.067078054 0.008364442 0.01304179 -0.117753975
000150 56 8a 5f bd 98 50 13 3d c4 b3 55 bb dd 65 b6 3c
       -0.054575287 0.035965532 -0.003260837 0.02226537
000160 84 9e 99 bd b8 77 43 bc e4 db 81 bd 0e 32 b1 3c
       -0.075009376 -0.011930399 -0.06340769 0.021630313
000170 11 c8 80 bc 47 ca 80 bc 82 5f fd 3c 22 7f ce 3c
       -0.0157204 -0.015721453 0.03092933 0.025207106
000180 9a 27 8a bb c4 bd 5e bc a3 af be bc 95 11 0e bd
       -0.0042161467 -0.013595048 -0.02327711 -0.034684736
000190 6d 63 93 3c d7 3a 78 bd 61 19 5f 3d ea 87 1e 3d
       0.017991746 -0.06060299 0.054467563 0.038703837
0001a0 af c1 17 bd f8 f6 38 bd de a0 85 3d 90 2d 9b bd
       -0.037049945 -0.045157403 0.065248236 -0.0757705
0001b0 a6 76 c2 bd 42 0f 3e 3d ec 64 83 bd 05 bb 48 bd
       -0.09495287 0.04640127 -0.06415734 -0.04900648
0001c0 c2 f0 9d 3d b4 6f ae 3d bd 60 34 bc f1 f7 ac 3b
       0.077119365 0.085173994 -0.011009392 0.0052785804
0001d0 72 8d 36 3d 34 f4 ea bb 4f 89 da 3c d2 6c 42 3d
       0.044568487 -0.0071702246 0.026676802 0.04746706
0001e0 d7 c9 a5 bd 1d 08 67 bc 80 75 57 bd f4 4d e8 bc
       -0.080951385 -0.014101055 -0.05260229 -0.028357483
0001f0 76 30 fe 3c 9f 05 31 bd 73 ab b6 bc 3f 3f 8d 3d
       0.031028967 -0.04321825 -0.02229855 0.06896829
000200 4a f6 55 bd 00 21 56 3d 96 1b 2b 3d 53 10 e2 bc
       -0.052236833 0.052277565 0.041774355 -0.027595675
000210 07 2b fd 3c 32 d1 3d bc 2d 96 02 bd 99 1a 60 3d
       0.030904306 -0.011585521 -0.0318815 0.054712866
000220 02 ef 8c b9 fa 71 e0 bb cc 49 cc 3c c5 5d 76 3d
       -0.00026880956 -0.0068495246 0.024937533 0.06014802
000230 c0 e5 26 3d b5 fa ee 3c ef 96 a2 bc ba 44 ce bd
       0.04074645 0.02917228 -0.019847361 -0.10071702
000240 1b 74 ad bc 6c 15 58 3c 56 86 36 3b a1 9c d4 bd
       -0.021173527 0.013188701 0.0027851067 -0.10381437
000250 e9 a4 c6 3d 55 ba 4d bd 34 6c b0 bd 88 bf ad bc
       0.09699423 -0.05022653 -0.08614388 -0.021209493
000260 d1 38 e3 bc b1 ad dc bd 40 29 eb 3c 38 87 90 3c
       -0.027737053 -0.107753165 0.028706193 0.017642602
000270 35 19 b9 bc 66 55 86 3c 6e 83 0a 3e 0c ab a7 3d
       -0.022595027 0.016398143 0.13526699 0.081869215
000280 21 50 04 3e 97 70 31 3c a6 8f 18 3c 9f f7 d5 3c
       0.12921192 0.010830066 0.009311592 0.026119052
000290 f0 81 a7 3d 5e d4 6a bd b2 6e ab 3c 90 04 c9 bc
       0.081790805 -0.057331435 0.020926807 -0.024538308
0002a0 86 a3 29 bd dd 1e 84 3d 07 c3 0e 3d 6b 91 42 3d
       -0.041415714 0.06451199 0.03485396 0.047501963
0002b0 fa 01 e0 bd ca 5b 88 bc 73 0e e6 bc 96 75 e0 bb
       -0.10937877 -0.016645331 -0.028083062 -0.006849955
0002c0 24 ad a0 bc bc b7 c6 bc 53 6d 3c bd 63 1f b9 3c
       -0.01961381 -0.024257533 -0.046002697 0.022597974
0002d0 29 72 d4 3c 6d f7 c4 3d 44 d1 fa ba 7a 0a 3a 3d
       0.025933342 0.09617505 -0.0019135852 0.045420147
0002e0 96 dd 3e 3d 62 84 94 bd 41 85 a0 bd 16 8e f1 bd
       0.04659804 -0.072518125 -0.07837916 -0.11794679
0002f0 86 f3 b3 3d f3 83 9d 3c 15 9d b8 3c 61 b5 23 bd
       0.08786683 0.019227957 0.02253584 -0.0399679
000300 65 5f 58 3d 21 59 40 bd 3f 48 f2 bc 8b ee 55 bd
       0.05282535 -0.04696 -0.029575465 -0.052229445
000310 30 51 9b bc c4 01 63 bd 6a 34 82 3d e7 e1 a4 bc
       -0.018959612 -0.055421606 0.063576534 -0.02012725
000320 3d 31 30 3d 5b bc 88 3c 26 28 76 3d e6 8c a4 3d
       0.043015707 0.016691377 0.060096882 0.08034687
000330 0b 3d 2f bd 23 1c d6 bd 5a 17 23 bd 62 1f 80 3c
       -0.042782824 -0.104545854 -0.03981719 0.015639964
000340 70 34 26 3d 50 97 40 3b 69 ae 40 3d 11 00 b9 bd
       0.040577352 0.0029387064 0.04704133 -0.09033216
000350 a2 85 93 3d 38 cb 12 bd 42 fb c9 3b 2b 9c 06 bd
       0.07203223 -0.035838336 0.0061639855 -0.032863777
000360 0f 19 02 3d 2a 89 19 3d d6 06 62 3d c2 7e cf bb
       0.03176218 0.037484325 0.0551823 -0.0063322494
000370 c3 1e c5 bb a4 cd 23 bc 90 97 34 3c 0c f8 5c ba
       -0.00601563 -0.009997759 0.011022463 -0.0008429296
000380 b5 21 89 3d 5d a3 a6 3b 75 a6 98 3b 4b 9c 35 bd
       0.06695882 0.0050853924 0.004658515 -0.044338506
000390 45 9b 17 bc 5d 75 95 3d be 28 9d 3d 3a 2d 89 3d
       -0.009253328 0.07297776 0.076737866 0.066980794
0003a0 56 a4 a1 3d f9 ce 7e 3d 48 9a 50 bd 90 38 3a 3d
       0.07892673 0.062209103 -0.050928384 0.0454641
0003b0 ca 04 2a 3c 4c 2b e7 bc bb 28 cf bd 92 e7 84 bc
       0.010377118 -0.028218888 -0.101151906 -0.016223703
0003c0 40 4e 70 bc 89 01 1c 3d e4 0e 12 3d 21 e6 06 bd
       -0.014667094 0.0380874 0.035658732 -0.03293431
0003d0 a4 30 64 3d c4 2e a4 bc 8c a9 48 3c d9 59 3b bd
       0.05571045 -0.02004183 0.012247454 -0.045739982
0003e0 33 42 18 bd 5b c9 16 bd 9d b9 01 3d 00 26 33 3b
       -0.037172507 -0.03681312 0.031671155 0.0027335882
0003f0 e0 76 a3 bd b2 bc 67 bd c5 50 9a bd db 4b 80 bd
       -0.07981658 -0.05657644 -0.07534937 -0.06264468

conv2.bias f4 [32]
000000 ff 20 c1 bc 3d d4 86 bc 88 d4 0a bc ca c9 57 3d
       -0.023575304 -0.016458625 -0.008473523 0.052682675
000010 1f 13 0c bd f0 e6 24 3c 56 5d ed 3c f9 21 23 3c
       -0.034197923 0.010064825 0.02897517 0.00995683
000020 87 93 d6 bb ad 09 84 bb 20 25 a5 bc f0 f9 8f 3c
       -0.0065483483 -0.0040294738 -0.020159304 0.017575234
000030 be ff dc 3a df 17 fb 3b b2 b5 96 bc 91 b8 91 3c
       0.0016860885 0.0076627578 -0.018397186 0.017788203
000040 dc af 05 bd 93 9f 2b 3c 52 c4 71 3d 1e 95 be bc
       -0.032638416 0.010475057 0.059025116 -0.023264464
000050 64 47 3b 3d b8 5c af bb d3 59 5d 3d 93 66 26 bc
       0.04572238 -0.005351629 0.05404074 -0.010156292
000060 d5 8e 05 3c ec d2 1e 3d 03 cd b4 bc 02 76 eb 3a
       0.00815173 0.03877537 -0.022070413 0.0017964246
000070 0b fe be bc b0 4c 64 bb c4 49 09 3d 36 6b f6 3b
       -0.023314497 -0.0034835748 0.033517614 0.0075201048

bn2.weight f4 [32]
000000 be 26 a1 3f 6d 2d 89 3f 30 e3 8e 3f c4 73 92 3f
       1.2589948 1.0716988 1.1163082 1.1441579
000010 ad b4 a0 3f 18 1c 9f 3f da 66 9d 3f 13 3c 8b 3f
       1.2555138 1.2430449 1.2297013 1.0877708
000020 1c 77 82 3f 61 5c 8f 3f d2 74 aa 3f 60 18 8c 3f
       1.0192599 1.1200067 1.3316901 1.0944939
000030 c3 7b 8b 3f e8 fc a1 3f 10 9d 94 3f f9 70 8e 3f
       1.0897144 1.2655306 1.1610432 1.1128227
000040 12 96 9e 3f 49 fa 80 3f 2b ee a2 3f 39 84 a7 3f
       1.2389548 1.0076381 1.2728933 1.3087226
000050 7e cc 9a 3f 78 3e ac 3f 2c f5 9f 3f 4a ab 94 3f
       1.2093656 1.3456564 1.2496696 1.1614773
000060 02 db ae 3f c9 3c 83 3f af a4 9b 3f 8e b2 89 3f
       1.3660586 1.0252925 1.2159632 1.0757616
000070 80 ab 98 3f fd e4 83 3f 6d c1 85 3f dc 2c 91 3f
       1.1927338 1.0304257 1.0449654 1.1341815

bn2.bias f4 [32]
000000 8d 84 ee be 34 e9 c4 be 3e 0c c5 be 94 70 c9 be
       -0.46585503 -0.3845917 -0.38485903 -0.39343703
000010 4e a0 eb be cd 90 f4 be 32 7b eb be ac a0 c5 be
       -0.4602074 -0.47766724 -0.45992428 -0.38599145
000020 00 8a a9 be 30 d4 e1 be e5 8d 0c bf 52 0a c7 be
       -0.33113098 -0.441072 -0.54904014 -0.3887506
000030 d2 79 c0 be 5f 7e 01 bf 6b 74 cf be 13 dc ca be
       -0.37592942 -0.5058345 -0.40518507 -0.39621028
000040 22 70 f1 be 98 3e a3 be 2b 6e 01 bf 1e 19 06 bf
       -0.47155863 -0.31883693 -0.5055873 -0.52382076
000050 c6 20 e5 be 5f b5 0c bf 70 e5 0d bf 46 c9 bd be
       -0.44751567 -0.5496425 -0.5542822 -0.37067622
000060 13 7a 14 bf 17 9d 83 be 3a 64 ec be 9a 31 a9 be
       -0.5799877 -0.25705788 -0.46170217 -0.33045655
000070 aa b9 ed be d2 a2 9c be 51 58 a3 be 99 c0 d8 be
       -0.46430713 -0.30592972 -0.31903318 -0.4233444

bn2.running_mean f4 [32]
000000 51 33 0f bf 58 1f ad be 2e 94 d6 bd b0 44 f5 be
       -0.5593768 -0.33812976 -0.10477482 -0.47903967
000010 d0 27 bc be 36 e8 1b bf c5 96 c7 be 1d f8 d4 bd
       -0.36749125 -0.609012 -0.38982216 -0.10398886
000020 7c 77 bc be 7d 3f d3 be 7d 04 15 bf 58 48 07 be
       -0.3680991 -0.41259375 -0.58209974 -0.1321119
000030 8e 05 87 be 98 3f 05 bf e5 09 47 be ae 08 26 be
       -0.26371425 -0.5205016 -0.19437368 -0.16214249
000040 cb eb 13 be 34 d5 5a be 61 a8 92 be c6 8d 0a bf
       -0.14445417 -0.21370393 -0.28644088 -0.5412258
000050 87 84 01 bf 21 0b d0 be 27 aa 19 bd f1 74 23 bf
       -0.50592846 -0.4063349 -0.037515786 -0.63850313
000060 78 2e 93 be 6e 14 6a be c7 1a 18 be 7d 52 66 be
       -0.2874639 -0.22859356 -0.14853965 -0.22492404
000070 a3 21 c7 be 78 c3 6e be c4 ce d9 be 00 ea b4 be
       -0.3889285 -0.23316753 -0.42540562 -0.35334778

bn2.running_var f4 [32]
000000 2b 8d 10 3f e7 bb f6 3e 61 44 03 3f d7 ab 1e 3f
       0.56465405 0.48190233 0.5127621 0.61980957
000010 98 97 f8 3e 57 96 26 3f 60 09 17 3f 8e 4e 15 3f
       0.48553157 0.6507315 0.5899868 0.5832299
000020 30 a7 0f 3f 0b 40 05 3f c0 2e 11 3f ed ea 11 3f
       0.5611448 0.52050847 0.5671196 0.56999093
000030 59 ba f9 3e 8e 35 1e 3f 24 ee fb 3e 16 bb 1d 3f
       0.48774984 0.6180047 0.49205124 0.61613595
000040 fb 23 13 3f 2c ad 19 3f e6 1f f6 3e 71 83 17 3f
       0.57476777 0.60029864 0.48071212 0.5918494
000050 04 be 18 3f 34 63 03 3f 87 6a 0b 3f ca 73 12 3f
       0.5966494 0.51323247 0.5445942 0.5720793
000060 3b ad ce 3e 7d d5 17 3f 26 b1 0e 3f 97 d2 f7 3e
       0.4036654 0.5931013 0.5573906 0.48402855
000070 1b bd 08 3f 3c 9c 02 3f 8f 58 21 3f a0 f9 03 3f
       0.5341355 0.51019645 0.63025755 0.5155277

fc.weight f4 [3, 2560]
000000 5e 85 3b 3d 64 68 1f bc 93 48 a9 bd 08 d0 8e bd
       0.045781486 -0.0097294785 -0.082657956 -0.069732726
000010 59 29 6f bc 51 00 5a bd 9e ca b5 3c 96 a0 64 bc
       -0.01459726 -0.053222958 0.022191342 -0.013954302
000020 46 8c af bd 24 40 84 bd 4b 3b 07 bd 98 0f 8b 3a
       -0.08571677 -0.06457546 -0.03301553 0.0010609506
000030 0f a8 9b bc 71 89 87 3d 01 22 ba bd c8 58 70 3d
       -0.019001035 0.06618012 -0.09088517 0.05867842
000040 6a 6e db bc df dc 17 bb d1 77 90 bc 03 30 92 3d
       -0.026786048 -0.002317242 -0.017635258 0.07138064
000050 21 78 32 bc ad f6 a6 3c 05 14 7e bd ce 22 14 3b
       -0.010892899 0.020381296 -0.06203081 0.0022603753
000060 89 15 fa 3c 8a d8 3b bd 10 31 48 3d d1 87 4f 3c
       0.030527847 -0.045860805 0.048874915 0.0126666585
000070 e8 ae a8 bd d4 a0 32 bd ea f1 68 bd b5 63 ab 3c
       -0.08236486 -0.04361041 -0.056871332 0.020921567
000080 5a ed 6d bb 9a b8 13 3e cd 8e 7e bd 4c b8 ca 3d
       -0.0036304803 0.14425889 -0.062147904 0.09898433
000090 90 5e 17 bd fe ea 1d 3d b6 a5 88 bd 88 f8 a7 3d
       -0.036955416 0.038554184 -0.06672232 0.082017004
0000a0 07 a4 c2 3b 59 44 01 3d d5 f7 50 bd 59 2b bd 3a
       0.0059399637 0.031559322 -0.0510176 0.0014432474
0000b0 57 26 54 bc 1c c2 61 bd ca 09 4a 3d a5 e3 db 3c
       -0.012948594 -0.055116758 0.04932574 0.026841948
0000c0 e6 57 86 bd 98 55 c2 bc a2 ea 27 bd ed a3 90 3c
       -0.06559734 -0.023722455 -0.040995248 0.01765629
0000d0 11 97 9f bb cd 99 15 3e e1 7d 9b bd ba 2a b5 3d
       -0.0048703034 0.14609452 -0.07592369 0.0884604
0000e0 8c de 69 39 7f 76 2a 3d 87 76 80 bd 5d 60 c4 3d
       0.00022303517 0.041616913 -0.06272607 0.09588692
0000f0 23 c5 e0 ba 18 15 18 3d 21 62 1f bd 89 14 0e bc
       -0.0017148595 0.03712949 -0.038911942 -0.008671888
000100 2c 6b 52 bc 3a a5 1c bd e3 58 30 3d b2 17 45 3c
       -0.012842935 -0.03824351 0.04305352 0.012029575
000110 89 ff 9f bc e9 9b 17 bd bc 5f 81 bd 7e fe f2 bb
       -0.019531028 -0.037013922 -0.06317088 -0.0074155917
000120 8e ef 95 bc d7 ab e1 3d 79 81 9d bd d7 4a df 3d
       -0.018302705 0.11019104 -0.076907106 0.109029464
000130 e4 af 95 bc ac 2d 89 3d f5 66 cb bc 41 af cb 3d
       -0.018272348 0.06698164 -0.024829367 0.099455364
000140 4c 17 a0 3d 48 6f 60 3d b3 d0 eb bc 38 e4 22 bd
       0.078169435 0.054793626 -0.028786039 -0.039768428
000150 70 9a 9f 3d ae 2f 9a 3c 05 db 0b 3d 10 58 9e 3b
       0.077931285 0.018821564 0.03414442 0.004832275
000160 8a c8 1c 3d b0 38 43 3b 6e 31 61 3d ca e1 1b 3d
       0.038277186 0.0029788427 0.05497878 0.038057126
000170 72 1c f2 3c e5 48 8f 3c 6b 22 da 3d 04 9e 30 3d
       0.02955458 0.017490814 0.10651096 0.043119445
000180 73 cb b5 3d c8 16 9f 3d 52 20 08 3d 14 b6 82 3d
       0.088766955 0.07768017 0.033233948 0.06382385
000190 d3 f1 8a 3d 07 b6 9e 3d 32 26 00 3d 02 84 26 bd
       0.067844056 0.07749563 0.031286426 -0.040653236
0001a0 ee fc 97 3d 97 08 67 3d df e4 5d 3d 8c 6b 4a 3d
       0.074212894 0.056404676 0.054173347 0.04941897
0001b0 fa cd d1 3d 5b 8d a2 bc ae 24 a3 3d 00 3a 86 3d
       0.10244365 -0.019842794 0.079659805 0.06554031
0001c0 83 ec 87 3c 72 d4 46 3d 02 f1 d6 3d 1f 4b 7f 3d
       0.01659227 0.048542447 0.10495187 0.0623275
0001d0 c8 5d 8d 3d 24 e7 6f 3d 97 ea ad 3c 17 4c 5c 3d
       0.06902653 0.058570042 0.021230025 0.053783502
0001e0 e6 cd 51 3d 2b 8e 6e 3d 7a f8 28 3c c7 15 5f bd
       0.05122175 0.05824105 0.010313148 -0.054464128
0001f0 3b ef 26 3d 40 22 d3 3c 32 38 33 3d 5c 50 e9 3b
       0.04075549 0.025773168 0.043754764 0.0071201753
000200 d4 3b d7 3d f3 0a 24 3a 59 64 30 3d d5 a8 54 3d
       0.10509458 0.0006257735 0.04306445 0.051918823
000210 ff 6a 16 3d c4 8c 48 3d 74 85 95 3d 3e 5e 8c 3d
       0.036723133 0.04896237 0.07300845 0.06853913
000220 91 b6 a7 3d f8 bf 2a 3d 78 a5 a8 3c 05 d8 0f 3d
       0.08189119 0.041686982 0.020586714 0.03511812
000230 f8 f7 a3 3c 74 78 71 3d dd 90 14 bd b6 aa 5a bd
       0.020015702 0.058952764 -0.036270965 -0.05338546
000240 3a b7 9b 3d 9d 78 8b bc a5 a5 c2 3c 35 fa 82 3c
       0.07603307 -0.017025286 0.023760626 0.015988449
000250 80 16 c0 3d cd b1 0b bd 1c 10 eb 3c a6 c0 52 3d
       0.093792915 -0.03410511 0.028694205 0.051453255
000260 a8 9a 52 3d 03 4f a7 3d 2f c7 d3 3d 6e c3 8f 3d
       0.051417023 0.08169367 0.10340726 0.07019697
000270 b2 c3 b3 3d 44 b8 f9 3c ca f7 d5 3c f0 23 c3 39
       0.0877756 0.030483373 0.026119132 0.00037220074
000280 43 ee 76 3c 82 d0 99 bb e8 20 64 bc 1e 52 8e bc
       0.015071454 -0.0046940455 -0.013923861 -0.01737314
000290 5b cf b3 3d 91 50 b7 bd 0b 91 2b bc 31 d4 f1 bc
       0.08779784 -0.08950914 -0.010471593 -0.029520126
0002a0 db 3b b0 bd 0c 80 8f 3d 7e 17 0b bc 74 31 52 3d
       -0.086051665 0.07006845 -0.008489488 0.051316693
0002b0 dc 3f 42 3d 1b e2 f2 bc 3a 7a bd bc 42 49 b9 3d
       0.047424182 -0.029648831 -0.023129571 0.09047176
0002c0 0a e6 a8 bc e1 73 67 bc ee 5e 8a bd 19 e1 c5 3d
       -0.020617504 -0.014126749 -0.06756388 0.096620746
0002d0 ee f6 60 3d 99 b0 8f 3c 1a 8b c7 3c 6e 52 b2 3a
       0.05492299 0.017540263 0.024358321 0.0013604888
0002e0 f3 2e 0b 3e df 15 eb bd a8 c7 4e bd ff fd 60 3c
       0.13592128 -0.11478781 -0.050483376 0.013732432
0002f0 95 67 f3 bd de e3 8b 3d 56 b4 58 3c 0d 9b a5 3d
       -0.11884991 0.068305716 0.013226589 0.08086214
000300 3d f3 e9 3c 73 22 ea bb f4 58 d5 bc 6a 67 85 3d
       0.028558368 -0.00714522 -0.026043393 0.06513865
000310 c9 ab 57 3c 3e 1f 2a bc 1f 14 3f bd 93 1b 01 3e
       0.013163515 -0.010383425 -0.04665005 0.12608175
000320 24 a1 95 3d c2 d4 1f 3d 6a 97 d8 3c f5 5d 88 bc
       0.07306126 0.03902126 0.026439387 -0.016646365
000330 06 09 d0 3d 61 fe dc bd 21 02 06 bd c0 d7 05 3d
       0.10157971 -0.107907064 -0.032716874 0.03267646
000340 76 e4 04 be 7a 64 9a 3d 41 52 a2 bc d5 1a 5c 3d
       -0.12977776 0.07538696 -0.019814612 0.053736527
000350 e0 33 1a 3c bb d0 f2 3b 59 27 2e 3b e0 1d 83 3d
       0.009411782 0.0074101365 0.0026573746 0.064021826
000360 41 91 43 3d f4 45 b8 bc 9d 59 b6 bc bd 3e d7 3d
       0.047745947 -0.022494294 -0.022259528 0.10510013
000370 fd 89 3c 3d 52 88 3d 3c 19 8d 02 3d b0 92 ba 3b
       0.046030033 0.011568146 0.031872842 0.005693756
000380 75 35 45 3d 1e 88 93 bd 04 87 95 bb ad f4 58 3d
       0.048146684 -0.07203697 -0.0045632143 0.052967716
000390 99 18 c8 bd 44 31 70 3d 67 75 cf 3c 10 13 0f 3d
       -0.09770317 0.058640733 0.025324536 0.03493029
0003a0 1e dd 12 3d d3 02 bb 3c 69 6a be 3c 19 40 5e 3d
       0.035855405 0.022828495 0.0232441 0.054260347
0003b0 6b 7c 9e bc f9 45 38 bc ec bb f7 3c 51 5a 9c 3d
       -0.019346436 -0.0112471515 0.030240975 0.07634414
0003c0 a9 67 19 bd e1 44 c4 3d 4c ac 98 bd b2 f3 7b bc
       -0.037452374 0.0958345 -0.07454738 -0.015377926
0003d0 d2 81 0a bd 06 09 83 bc 81 49 a5 bd ce 41 8b bc
       -0.033815213 -0.015995514 -0.080706604 -0.016999152
0003e0 5c 5a 64 3c 50 6e 6a bd 8f 5d 94 bd 20 5e f1 bc
       0.013937559 -0.05723411 -0.072444074 -0.029463828
0003f0 ab 3c fe 3c 58 48 c1 bc 19 2b 48 3d 37 07 bc bc
       0.031034788 -0.023594067 0.048869226 -0.022952659

fc.bias f4 [3]
000000 a5 e9 0e bd 33 38 88 3d b3 b9 bd bb
       -0.03489079 0.06651344 -0.0057899593
